…
      "metadata": {
        "colab": {
          "base_uri": "https://localhost:8080/"
        },
        "id": "ZS-ENF6aRqOu",
        "outputId": "a1694339-8254-4b81-fca1-e846931f2520"
      },
      "outputs": [
        {
          "output_type": "execute_result",
          "data": {
            "text/plain": [
              "IIRModule(\n",
              "  (dwt): DWTForward()\n",
              "  (iwt): DWTInverse()\n",
              "  (invertible_blocks): ModuleList(\n",
              "    (0-3): 4 x InvertibleBlock(\n",
              "      (phi): Sequential(\n",
              "        (0): Conv2d(3, 3, kernel_size=(3, 3), stride=(1, 1), padding=(1, 1), padding_mode=reflect)\n",
              "        (1): ReLU()\n",
              "        (2): Conv2d(3, 3, kernel_size=(3, 3), stride=(1, 1), padding=(1, 1), padding_mode=reflect)\n",
              "      )\n",
              "      (rho): Sequential(\n",
              "        (0): Conv2d(3, 3, kernel_size=(3, 3), stride=(1, 1), padding=(1, 1), padding_mode=reflect)\n",
              "        (1): ReLU()\n",
              "        (2): Conv2d(3, 3, kernel_size=(3, 3), stride=(1, 1), padding=(1, 1), padding_mode=reflect)\n",
              "      )\n",
              "      (eta): Sequential(\n",
              "        (0): Conv2d(3, 3, kernel_size=(3, 3), stride=(1, 1), padding=(1, 1), padding_mode=reflect)\n",
              "        (1): ReLU()\n",
              "        (2): Conv2d(3, 3, kernel_size=(3, 3), stride=(1, 1), padding=(1, 1), padding_mode=reflect)\n",
              "      )\n",
              "      (alpha): Sigmoid()\n",
              "    )\n",
              "  )\n",
              "  (highpass_estimator): HighPassEstimator(\n",
              "    (residual_block): Sequential(\n",
              "      (0): Conv2d(6, 9, kernel_size=(3, 3), stride=(1, 1), padding=(1, 1), padding_mode=reflect)\n",
              "      (1): ReLU()\n",
              "      (2): Conv2d(9, 9, kernel_size=(3, 3), stride=(1, 1), padding=(1, 1), padding_mode=reflect)\n",
              "      (3): ReLU()\n",
              "      (4): Conv2d(9, 6, kernel_size=(3, 3), stride=(1, 1), padding=(1, 1), padding_mode=reflect)\n",
              "      (5): ReLU()\n",
              "      (6): Conv2d(6, 3, kernel_size=(3, 3), stride=(1, 1), padding=(1, 1), padding_mode=reflect)\n",
              "      (7): ReLU()\n",
              "    )\n",
              "  )\n",
              ")"
            ]
          },
          "metadata": {},
          "execution_count": 11
        }
      ],
      "source": [
        "model.eval()"
      ]
    },
    {
      "cell_type": "markdown",
      "metadata": {
…
